cotton.tflite (tflite, 742604 bytes, 16 tensors)

sequential_2/conv2d/Relu;sequential_2/conv2d/BiasAdd;sequential_2/conv2d/Conv2D;sequential_2/conv2d/BiasAdd/ReadVariableOp f4 [32, 3, 3, 3]
-0.0004511235 0.00033821992 -0.00013436443 0.0001583388 0.00030313834 0.0002415612 0.00032197702 9.9909585e-06
-0.00027572887 0.00024060367 -4.9490216e-05 0.00027933271 -0.00047431074 0.0003885987 0.00019275905 -0.0005261326
-0.00015647427 1.7680513e-05 -0.0001836562 3.5441393e-05 -0.0003436197 0.00016630876 0.0003771853 8.254948e-05
-0.00046861547 0.00044168968 0.00035325752 -0.00045268628 0.00031051793 0.00041941786 -0.00027357385 -0.00019382352
-0.00055854657 8.582512e-05 -0.0003992259 0.00022600887 -0.00048921903 0.00052047416 -0.00021502485 -0.00031820845
0.0005187183 0.0002628579 -0.0005914315 -6.861526e-06 -0.00041238335 -0.00023784705 -0.00026593104 -0.00031301528
-0.00036398592 -2.760407e-05 -0.00036948366 -0.00014939545 -0.00025224462 0.00034422704 -0.00021001913 0.00029998957
0.00010919663 0.00018363597 8.6222404e-05 -0.00034892315 0.00016887498 -0.0005257476 1.8510817e-05 0.00022291587
-0.0005870146 0.00044005655 -7.0439137e-06 0.0002426948 -0.0005171593 0.0004454276 4.0403884e-05 1.6477961e-05
0.00027784257 -5.7534904e-05 -0.0004894726 0.00044371813 0.00016726172 2.494582e-05 -0.00032477255 -0.00045787616
0.00022440543 -0.00024812095 0.0002580093 -0.00016983323 -7.912318e-05 -0.0004783836 0.00017572 -0.000367709
0.00032982763 0.0002544595 0.0005319807 0.000489504 -0.00014680305 0.00043496833 0.00022168564 3.638706e-05
-0.00054756744 -0.0004576227 -3.25623e-05 -9.332637e-05 -0.00032693965 2.263608e-05 -0.00045802066 -0.0004298977
0.0002773599 -0.0004218041 0.00017070297 -0.0004172273 0.00046687433 0.0004116463 1.8007568e-05 -0.0002733358
0.000444897 0.00058931415 0.0003026966 -1.3352438e-05 0.00044332264 -0.00033522834 0.00019951745 0.00031998727
0.00029752176 0.00026719313 0.0005306853 -0.00016524483 0.00032828702 -0.000452266 -0.00028692582 -0.0006267806
-0.00024129268 -0.000103168895 -0.00054277154 -0.0004900873 0.00024587632 -7.1158895e-05 -0.00027722673 0.00029823132
0.0003080125 -3.9952534e-05 0.00035896336 0.00026747733 0.0001963862 -0.0005352371 -0.0005934381 -0.0002484524
0.00038501588 -0.00013311878 3.146272e-05 0.00042988782 0.00025311048 0.00042356254 -5.374525e-05 0.00030122724
0.00022740621 -0.00029721472 9.510946e-05 0.00053061824 5.033415e-05 -0.0005498829 -5.22167e-05 -0.00022281469
0.00031962438 -0.00025823488 -0.00037030043 9.7931006e-05 0.00040072508 0.00018049273 0.00014490036 -0.00010930776
1.3952123e-05 -0.0004379675 -0.00034446854 -0.0003379365 0.00010251792 7.600839e-05 -0.00020672762 8.2954895e-05
-0.00044046156 -0.00033704814 -0.00041839268 -0.00051777286 -0.00040882136 -0.00043651857 0.0003766402 0.00060456264
0.0001264972 0.0005292352 0.00043396352 0.00053457066 0.0002801026 0.00030766966 -0.00035910614 -0.00025936213
0.0003268186 0.00025993914 -0.00015989461 0.0005126351 -0.00022340035 0.00033449137 0.0005213542 1.433103e-05
-0.00031967845 2.7942484e-05 0.000116499315 0.00041916315 0.0004087093 -0.00019443096 -0.0005158982 0.00047365474
-5.164315e-05 -0.0002592349 0.00034539308 -0.0004921185 0.0002064087 -0.00024097327 -0.00015698708 0.00017690362
-0.00032747674 0.00024292867 -1.7284025e-05 -0.00026866 0.00039300133 2.4566878e-05 -0.00012823628 -0.0002676377
0.0003099045 0.00017726114 -0.00035814836 -0.00037853848 -0.00037892672 4.2317748e-05 -0.00020464923 0.00035334428
6.4652224e-05 0.00060508534 0.0004027538 -6.388708e-05 8.53178e-05 0.00019415336 -0.00040297632 -0.0004533474
-0.00027509552 0.00031346062 -0.00047946197 -0.00019853149 -0.00019793231 -7.1493027e-06 2.919348e-05 -2.6601485e-06
-0.00056720804 -0.00037228776 0.00017070644 -5.0986393e-05 0.00013786853 -9.2311275e-06 -0.00013718242 -0.00041570904
00000000: c584 ecb9 1c53 b139 2de4 0cb9 bf07 2639
00000010: 8aee 9e39 974b 7d39 06cf a839 d79e 2737
00000020: b48f 90b9 8e4a 7c39 b793 4fb8 6773 9239
00000030: e9ac f8b9 d6bc cb39 5d1f 4a39 29ec 09ba
00000040: 3e13 24b9 9d50 9437 d693 40b9 e8a6 1438
00000050: db27 b4b9 2b63 2e39 f4c0 c539 6a1e ad38
00000060: 81b0 f5b9 9692 e739 6c35 b939 8656 edb9
00000070: 03cd a239 50e5 db39 766e 8fb9 1b3d 4bb9
00000080: 6d6b 12ba 03fd b338 314f d1b9 cbfc 6c39
00000090: ef3e 00ba 6e70 083a 4b78 61b9 37d5 a6b9
000000a0: 99fa 073a 31d0 8939 4c0a 1bba 0f3c e6b6
000000b0: 2835 d8b9 9566 79b9 a96c 8bb9 331c a4b9
000000c0: 5dd5 beb9 4a8f e7b7 42b7 c1b9 09a7 1cb9
000000d0: b33f 84b9 5f79 b439 9538 5cb9 eb47 9d39
000000e0: 7f00 e538 688e 4039 4dd2 b438 acef b6b9
000000f0: 0814 3139 53d2 09ba ad47 9b37 86be 6939
00000100: e2e1 19ba 64b7 e639 c25a ecb6 e47b 7e39
00000110: f991 07ba 4888 e939 5777 2938 273a 8a37
00000120: 66ab 9139 a251 71b8 f34f 00ba d7a2 e839
00000130: fa62 2f39 be42 d137 3c46 aab9 190f f0b9
00000140: 604e 6b39 3b16 82b9 6c45 8739 4315 32b9
00000150: efee a5b8 8fcf fab9 7a41 3839 11c9 c0b9
00000160: b7ec ac39 fa68 8539 9f74 0b3a 0f52 003a
00000170: 25ef 19b9 760c e439 4974 6839 4f9e 1838
00000180: a18a 0fba 14ed efb9 8193 08b8 37b8 c3b8
00000190: 1969 abb9 9de2 bd37 7e22 f0b9 e463 e1b9
000001a0: 9e6a 9139 9725 ddb9 bbfe 3239 4dbf dab9
000001b0: d0c6 f439 3bd2 d739 f50e 9737 834e 8fb9
000001c0: 1141 e939 347c 1a3a 40b3 9e39 4904 60b7
000001d0: c26d e839 96c1 afb9 8f35 5139 f7c3 a739
000001e0: b2fc 9b39 0e16 8c39 b01d 0b3a 9245 2db9
000001f0: f01d ac39 1d1e edb9 886e 96b9 894e 24ba
00000200: 8303 7db9 615c d8b8 c848 0eba 3479 00ba
00000210: f6e8 8039 243b 95b8 be58 91b9 ee5b 9c39
00000220: bd7c a139 b592 27b8 3f33 bc39 333c 8c39
00000230: 05ed 4d39 274f 0cba f590 1bba b742 82b9
00000240: f5db c939 cd95 0bb9 d7f6 0338 9162 e139
00000250: eab3 8439 9a11 de39 866c 61b8 09ee 9d39
00000260: e473 6e39 7cd3 9bb9 8175 c738 3019 0b3a
00000270: e21d 5338 0426 10ba 4103 5bb8 5da3 69b9
00000280: 4293 a739 b363 87b9 e224 c2b9 4f60 cd38
00000290: 6918 d239 a642 3d39 65f0 1739 283c e5b8
000002a0: e913 6a37 019f e5b9 c999 b4b9 122d b1b9
000002b0: e4fe d638 b266 9f38 06c5 58b9 12f8 ad38
000002c0: c0ed e6b9 d6b5 b0b9 b75b dbb9 26bb 07ba
000002d0: 1357 d6b9 88dc e4b9 cb77 c539 837b 1e3a
000002e0: 55a4 0439 60bc 0a3a 9985 e339 6e22 0c3a
000002f0: bcda 9239 b94e a139 6946 bcb9 fffa 87b9
00000300: da58 ab39 7148 8839 62a9 27b9 5c62 063a
00000310: 9340 6ab9 ac5e af39 7dab 083a 4e6f 7037
00000320: 849a a7b9 0766 ea37 1851 f438 20c3 db39
00000330: 0948 d639 2ae0 4bb9 583d 07ba dd54 f839
00000340: 699b 58b8 ebe9 87b9 e015 b539 8301 01ba
00000350: 6a6f 5839 c5ad 7cb9 e69c 24b9 347f 3939
00000360: 2fb1 abb9 abba 7e39 29fd 90b7 efda 8cb9
00000370: bf0b ce39 f814 ce37 2a77 06b9 b951 8cb9
00000380: ae7a a239 2ddf 3939 dcc5 bbb9 9376 c6b9
00000390: afaa c6b9 567e 3138 1c97 56b9 1141 b939
000003a0: e695 8738 979e 1e3a b328 d339 1dfb 85b8
000003b0: a5ec b238 a595 4b39 9146 d3b9 42af edb9
000003c0: b23a 90b9 f957 a439 4c60 fbb9 e42c 50b9
000003d0: 0d8c 4fb9 0be4 efb6 85e4 f437 0185 32b6
000003e0: b0b0 14ba 9e2f c3b9 a9ff 3239 39da 55b8
000003f0: cd90 1039 64df 1ab7 a0d8 0fb9 86f3 d9b9

sequential_2/conv2d/BiasAdd/ReadVariableOp f4 [32]
-0.054340016 0.064534545 0.023398686 0.010517799 -0.07076127 -0.03622531 0.015006532 0.006279116
0.011302171 -0.0036038791 -0.0039395504 -0.038907323 0.047174785 0.01230933 -0.008092876 0.008210794
0.021325974 0.018783605 0.021922758 -0.0020024418 0.021796234 -0.032997716 0.0004603819 0.0024494377
0.022563033 0.011924451 -0.0062734657 0.01524234 -0.04868909 -0.021596177 -0.044668745 -0.025742527
00000000: a393 5ebd b02a 843d 9aae bf3c d952 2c3c
00000010: 49eb 90bd fe60 14bd f5dd 753c 0bc1 cd3b
00000020: be2c 393c 0f2f 6cbb 5817 81bb 495d 1fbd
00000030: 593a 413d 12ad 493c fb97 04bc 9186 063c
00000040: cfb3 ae3c 13e0 993c 5b97 b33c 663b 03bb
00000050: 048e b23c 9d28 07bd 6a5f f139 bf86 203b
00000060: 1cd6 b83c c65e 433c a591 cdbb 02bb 793c
00000070: 366e 47bd 77ea b0bc 93f6 36bd fee1 d2bc

sequential_2/conv2d_1/BiasAdd/ReadVariableOp f4 [64]
-0.008130944 -0.021165112 -0.020652434 -0.013543996 -0.014695461 0.028372796 -0.018253218 -0.025252923
-0.011924546 -0.0012874412 -0.015548955 -0.028297381 0.00388856 -0.015270451 -0.011327914 0.018308496
0.023349961 -0.01005733 -0.006008684 -0.022690704 0.009735447 -0.014086753 0.02977696 -0.014417683
-0.01965332 -0.020697467 -0.024265628 -0.02155169 -0.0061868452 -0.011300945 0.002438733 0.031951703
0.018958163 -0.01724818 0.0069405283 -0.010327756 -0.02842447 0.031802088 0.009589026 0.035399273
0.02389167 0.01458919 -0.015010625 0.017093703 -0.0037431112 -0.023554182 -0.014115663 -0.016682282
-0.055198602 -0.020745004 -0.0111291325 0.033123914 0.013730399 -0.01809503 -0.014003993 -0.0048396694
-0.01315259 -0.00512095 -0.013886845 -0.0040220055 0.029340621 0.0036407406 -0.01555485 -0.023717962
00000000: a737 05bc 7562 adbc 4b2f a9bc a3e7 5dbc
00000010: 3bc5 70bc 116e e83c c687 95bc 38df cebc
00000020: 2c5f 43bc 5cbf a8ba 0bc1 7ebc e9cf e7bc
00000030: 36d7 7e3b ea30 7abc b798 39bc b3fb 953c
00000040: 6b48 bf3c 80c7 24bc 7fe4 c4bb dbe1 b9bc
00000050: 6d81 1f3c 20cc 66bc d0ee f33c 2538 6cbc
00000060: 0000 a1bc bc8d a9bc b6c8 c6bc 2b8d b0bc
00000070: 05bb cabb 9927 39bc 26d3 1f3b cadf 023d
00000080: 264e 9b3c 0e4c 8dbc 5f6d e33b c035 29bc
00000090: 6fda e8bc e842 023d 4a1b 1d3c d4fe 103d
000000a0: 77b8 c33c 7f07 6f3c 20ef 75bc 1808 8c3c
000000b0: fc4e 75bb b3f4 c0bc 6245 67bc 48a9 88bc
000000c0: ee17 62bd 6df1 a9bc f756 36bc f1ac 073d
000000d0: 78f5 603c 073c 94bc 0171 65bc 1796 9ebb
000000e0: f67d 57bc a4cd a7bb a685 63bc 07cb 83bb
000000f0: be5b f03c 7e99 6e3b c5d9 7ebc 2c4c c2bc

sequential_2/conv2d_2/BiasAdd/ReadVariableOp f4 [64]
-0.01329186 -0.01978284 -0.018457789 -0.00407885 -0.028736452 -0.024488367 -0.045340676 -0.015283418
-0.023423474 -0.013927123 -0.024454761 -0.017562712 -0.045739733 -0.01572438 0.0025838232 -0.019590966
-0.0008739452 -0.02625262 -0.024827996 -0.005960852 -0.016254427 -0.043612186 -0.024954021 0.010738725
-0.030437008 -0.006430224 -0.0011166894 -0.028515443 -0.033743862 0.021738276 0.018110964 0.03127988
0.0043976605 -0.0044296994 -0.020071274 0.021521429 -0.02096474 -0.005445786 -0.0142835975 -0.017220343
0.017085176 -0.012094222 -0.00939145 -0.025197007 0.0024442496 -0.023726469 -0.028726261 -0.024496537
0.0033513901 -0.0045178514 -0.01901039 -0.027559992 0.021876542 -0.017424952 -0.0072427965 -0.01572957
-0.018944759 0.011716651 -0.03455444 -0.019118069 -0.022043841 -0.023469647 -0.0148385465 -0.0061296923
00000000: 1ac6 59bc 9f0f a2bc ca34 97bc e0a7 85bb
00000010: b568 ebbc d49b c8bc 25b7 39bd 4d67 7abc
00000020: 96e2 bfbc 962e 64bc 5a55 c8bc addf 8fbc
00000030: 9659 3bbd 6ad0 80bc 5c55 293b 3c7d a0bc
00000040: 7819 65ba bc0f d7bc 1564 cbbc 4053 c3bb
00000050: 0128 85bc b1a2 32bd 606c ccbc 7af1 2f3c
00000060: 0857 f9bc a1b4 d2bb e15d 92ba 3899 e9bc
00000070: 0137 0abd 7814 b23c 725d 943c 551f 003d
00000080: 401a 903b 0327 91bb 836c a4bc b54d b03c
00000090: 3fbe abbc 9072 b2bb c005 6abc ad11 8dbc
000000a0: 36f6 8b3c d826 46bc 99de 19bc f469 cebc
000000b0: b42f 203b 035e c2bc 5653 ebbc f6ac c8bc
000000c0: ffa2 5b3b 7c0a 94bb adbb 9bbc 7ec5 e1bc
000000d0: 6f36 b33c c6be 8ebc fb54 edbb 4ddb 80bc
000000e0: 0a32 9bbc 32f7 3f3c f588 0dbd 7f9d 9cbc
000000f0: 4995 b4bc 6b43 c0bc 601d 73bc 96db c8bb

sequential_2/conv2d_3/BiasAdd/ReadVariableOp f4 [64]
-0.01822241 -0.020778192 -0.019762147 0.014809835 -0.021977855 -0.019571377 0.0013412358 -0.015619018
-0.005340455 -0.030650884 -0.0061078356 -0.02351213 -0.0557046 -0.026598923 0.00083402783 -0.01821902
0.0070416452 -0.007795699 -0.022872973 0.0011301566 -0.0049148984 -0.0023325693 -0.021718567 -0.0084839165
-0.012413362 -0.040450986 -0.0137269255 -0.005117919 -0.025317138 -0.016923966 -0.009448777 -0.01672099
0.032681875 -0.013178501 -0.019606473 0.0048879017 -0.0038400933 -0.01405699 0.017347552 0.007220433
0.026557092 -0.02081195 -0.03697201 0.0016538094 -0.010696755 0.01487791 -0.018888852 0.00055879867
-0.028229183 7.238301e-05 -0.025095752 -0.0101633705 -0.0031055475 -0.01227058 0.012349135 -0.01688597
-0.016498538 -0.003944209 0.001023209 -0.012976539 -0.010182517 8.052755e-05 -0.010301446 0.012519485
00000000: 2a47 95bc 0737 aabc 3ae4 a1bc f3a4 723c
00000010: e70a b4bc 2754 a0bc 68cc af3a e9e6 7fbc
00000020: fcfe aebb 9017 fbbc 3d24 c8bb 839c c0bc
00000030: 822a 64bd fce5 d9bc a9a2 5a3a 0e40 95bc
00000040: 9abd e63b 1073 ffbb 1a60 bbbc c321 943a
00000050: 280d a1bb 05de 18bb 23eb b1bc 2000 0bbc
00000060: 6a61 4bbc efaf 25bd e6e6 60bc 37b4 a7bb
00000070: e365 cfbc 21a4 8abc 0bcf 1abc 75fa 88bc
00000080: 6edd 053d a4ea 57bc c19d a0bc b12a a03b
00000090: 13aa 7bbb 4a4f 66bc 741c 8e3c 6299 ec3b
000000a0: 428e d93c d37d aabc f66f 17bd a3c4 d83a
000000b0: 7141 2fbc 7ac2 733c cbbc 9abc 587c 123a
000000c0: e340 e7bc 55cc 9738 9b95 cdbc 4484 26bc
000000d0: 7186 4bbb 8b0a 49bc 0754 4a3c 7254 8abc
000000e0: f127 87bc 6c3e 81bb 321d 863a 8d9b 54bc
000000f0: 92d4 26bc e6e0 a838 65c7 28bc 871e 4d3c

sequential_2/conv2d_4/BiasAdd/ReadVariableOp f4 [64]
0.002368856 -0.021632988 -0.019390378 -0.0018531574 0.0043032607 0.021852616 -0.016112618 -0.01202504
-0.011141776 -0.017468093 -0.0018790838 0.03361694 0.005050386 -0.01860316 0.0045210533 -0.026547808
-0.011489856 0.0011718267 0.0119355945 -0.016817983 -0.021556046 0.012726376 0.02204161 0.015991967
-0.00058569363 -0.00048298467 -0.011325008 -0.004546126 0.028637996 -0.007913271 0.0042757206 -0.01109835
0.012333508 -0.009575961 0.014519029 -0.028239347 0.023056993 0.024112001 0.015122989 0.023463702
-0.0015951358 -0.0063085794 0.017099975 0.014414607 -0.012740821 -0.03411224 0.010573795 0.01649728
-0.039201077 -0.0026745438 -0.017790822 -0.0052856104 0.009106546 -0.0069430214 -0.013288496 -0.009435755
-0.010377216 -0.022171956 0.023937056 -0.013468569 -0.01988598 0.010173232 0.0093913 -0.008966921
00000000: cf3e 1b3b aa37 b1bc 92d8 9ebc a5e5 f2ba
00000010: 5e02 8d3b 4204 b33c 9cfe 83bc ac04 45bc
00000020: ff8b 36bc 3f19 8fbc 974b f6ba ebb1 093d
00000030: b57d a53b a765 98bc 5825 943b ca7a d9bc
00000040: f33f 3cbc fb97 993a 838d 433c dec5 89bc
00000050: 4e96 b0bc 4a82 503c 9b90 b43c 9601 833c
00000060: 3c89 19ba 1b39 fdb9 878c 39bc abf7 94bb
00000070: 3b9a ea3c aaa6 01bc 581b 8c3b dbd5 35bc
00000080: 7b12 4a3c 7ee4 1cbc 39e1 6d3c 3456 e7bc
00000090: 05e2 bc3c 8886 c53c 6ac6 773c f336 c03c
000000a0: e013 d1ba 33b8 cebb 3f15 8c3c 3e2b 6c3c
000000b0: e0be 50bc 47b9 0bbd b63d 2d3c 4e25 873c
000000c0: 4f91 20bd 6647 2fbb 0fbe 91bc ea32 adbb
000000d0: 9f33 153c 4982 e3bb feb7 59bc 6d98 1abc
000000e0: 3305 2abc f6a1 b5bc a517 c43c 46ab 5cbc
000000f0: ece7 a2bc a1ad 263c f8dd 193c fee9 12bc

sequential_2/conv2d_5/BiasAdd/ReadVariableOp f4 [64]
0.016537169 -0.015099146 0.007940219 -0.0144817615 0.044539794 0.029926844 0.017003102 -0.0029003043
0.009241202 -0.0077588414 -0.020558726 0.011966704 -0.014678011 0.0038697852 0.07468675 -0.047648728
0.009841523 -0.023597294 -0.026983 -0.0053781783 0.015593794 -0.008328739 0.00326302 -0.013974824
-0.0085901655 -0.005660015 -0.011066477 0.010701132 -0.01932889 0.007388822 -0.026212597 -0.028593732
0.059013672 -0.019411298 0.024791291 0.048917677 -0.0009946899 0.013984881 -0.007929588 -0.02074767
-0.0067513823 0.008740369 0.045536164 0.054880187 0.042326845 -0.021759437 -0.035753895 -0.026949676
0.0040393737 -0.0014610235 -0.029060382 -0.013486145 -0.0085990345 0.01964558 0.016215002 0.04686365
0.0074454937 0.010247468 -0.0121700615 -0.021151409 -0.0036049453 -0.015935766 0.015914263 0.039410602
00000000: f578 873c 6962 77bc b117 023c e944 6dbc
00000010: 5c6f 363d 2429 f53c 174a 8b3c 0813 3ebb
00000020: 6968 173c e13d febb c66a a8bc ff0f 443c
00000030: 0a7c 70bc 399c 7d3b 5ef5 983d 502b 43bd
00000040: 573e 213c 1d4f c1bc 740b ddbc 6e3b b0bb
00000050: 1d7d 7f3c 4375 08bc 64d8 553b a9f6 64bc
00000060: c4bd 0cbc a677 b9bb 2b50 35bc cd53 2f3c
00000070: 9f57 9ebc ee1d f23b cdbb d6bc 673d eabc
00000080: 52b8 713d 7104 9fbc 1b17 cb3c e75d 483d
00000090: 4160 82ba d820 653c 1aeb 01bc 05f7 a9bc
000000a0: b33a ddbb c433 0f3c 2184 3a3d 0cca 603d
000000b0: ea5e 2d3d d940 b2bc ad72 12bd 91c5 dcbc
000000c0: b95c 843b d07f bfba 0a10 eebc fef4 5cbc
000000d0: f7e2 0cbc c4ef a03c 53d5 843c 19f4 3f3d
000000e0: 54f9 f33b ffe4 273c f064 47bc b845 adbc
000000f0: f240 6cbb b98b 82bc a15e 823c 036d 213d

sequential_2/conv2d_1/Conv2D f4 [64, 3, 3, 32]
-0.06544688 0.01120972 -0.0054084538 -0.07413753 0.013770699 0.039060496 -0.014891591 -0.010894953
-0.035974294 0.06264237 -0.07803195 0.018342607 -0.054927967 0.0068837116 0.0073262504 -0.013418494
-0.024834746 -0.07582469 -0.020281179 0.0010191655 0.037008785 0.0070753805 -0.0245515 0.06333951
-0.060692415 -0.09040083 -0.054373253 -0.039223596 0.012363976 -0.02966453 -0.078705765 -0.0057639745
-0.058405943 0.06769811 -0.041916404 -0.06898914 0.0646866 -0.00681873 -0.041628696 -0.08857528
-0.035763875 0.009221971 0.0315957 0.046128564 0.047860704 0.06651528 0.007604894 -0.010057598
-0.06851009 0.031106716 -0.05350986 0.0084121255 -0.006285986 0.01047072 -0.009861091 -0.074121594
0.058304362 0.015205262 0.034068312 0.045958206 -0.0581017 -0.060781747 0.04188328 -0.051557336
-0.027280135 -0.083480164 0.004965818 -0.008244781 -0.09047921 0.034006562 0.009396815 -0.034154013
-0.07305791 -0.039881058 -0.025967326 0.050011046 0.03517532 -0.02262191 0.07994384 0.0677252
0.054338932 -0.07258393 -0.07005682 -0.024196612 -0.056637593 -0.071092546 -0.00074789475 0.032690067
0.019075058 -0.00020160967 -0.067980014 -0.0390104 0.00614583 0.03306246 0.05328751 0.07095801
0.044731878 -0.04919425 -0.034846712 0.03677194 0.019830324 0.046545334 0.041130237 -0.087255806
-0.095254734 -0.059775803 -0.052766137 -0.041184064 -0.0742408 0.04504015 -0.07334403 -0.06381672
-0.09093415 -0.017478831 -0.048744924 -0.03184199 0.04029961 0.006540453 -0.05789023 0.063176624
-0.08751941 0.04031931 0.047424212 -0.07130607 -0.05196363 -0.08317334 0.062464885 -0.05645551
-0.0035471471 -0.021201039 -0.038317136 -0.024032397 -0.08345551 0.03773745 -0.032477498 -0.03643562
0.007897169 -0.03655661 -0.038455278 0.020879526 0.06371455 0.048008665 -0.04059776 -0.06714657
-0.030868731 0.06544976 -0.026561428 -0.01461021 -0.06374437 0.025391605 -0.009206316 0.07900929
-0.042119365 -0.0041611716 -0.039905343 -0.0682331 0.062524244 0.03390808 0.018385317 0.026362995
-0.027095638 -0.04715146 -0.08051729 -0.019323986 -0.027537102 0.06983843 -0.033067886 -0.020953963
-0.017519463 0.02716711 0.0013015002 0.052621722 -0.05401424 0.035649292 0.010892354 0.06995084
-0.037033707 -0.0031553183 -0.041074533 -0.0021267787 -0.006408283 0.07865502 -0.07655447 0.0025301261
-0.102746055 -0.05769978 -0.08698905 -0.013636918 -0.0077232257 -0.09281231 0.035978287 -0.041152257
-0.0034539273 -0.03581165 -0.038886636 -0.015946116 -0.06873978 -0.030670658 -0.08454213 0.07179724
0.014066366 -0.013070904 0.02525627 -0.03218002 -0.076835476 -0.07178283 -0.04428736 -0.044801787
-0.005315784 -0.06821788 0.041832708 -0.019176254 -0.05133367 -0.07816694 0.047614492 0.007997751
-0.09007329 0.040260285 -0.016498776 -0.014672441 -0.017054433 -0.014563422 -0.07238349 -0.049042255
0.041935865 0.01456557 -0.020565907 0.047717433 -0.05073917 0.070682935 -0.03373527 -0.077222526
-0.083256386 -0.011383083 0.032918796 -0.05437335 -0.08611644 -0.028826771 0.022341715 -0.03460076
-0.008833145 -0.016121078 -0.07947437 -0.083283186 -0.014154171 0.0040806388 0.06576512 0.029250495
-0.06640127 -0.026068203 0.04892605 -0.08755469 0.0011296885 -0.047493894 -0.08079098 -0.048727036
00000000: 0409 86bd f9a8 373c 6639 b1bb 6bd5 97bd
00000010: 7f9e 613c e6fd 1f3d dcfb 73bc bf80 32bc
00000020: c859 13bd a54a 803d 37cf 9fbd 3c43 963c
00000030: 26fc 60bd c290 e13b 0b11 f03b 3ed9 5bbc
00000040: 3d72 cbbc fa49 9bbd b724 a6bc 8595 853a
00000050: 8696 173d 98d8 e73b 3a20 c9bc 25b8 813d
00000060: 9c98 78bd 1224 b9bd 7db6 5ebd eca8 20bd
00000070: 4692 4a3c 0703 f3bc 7d30 a1bd b9df bcbb
00000080: 123b 6fbd 4fa5 8a3d 89b0 2bbd 2e4a 8dbd
00000090: 687a 843d a76f dfbb da82 2abd f566 b5bd
000000a0: 247d 12bd c017 173c 7e6a 013d 4ef1 3c3d
000000b0: 9609 443d 2a39 883d 7a32 f93b a0c8 24bc
000000c0: 054f 8cbd 83d3 fe3c 282d 5bbd 03d3 093c
000000d0: acfa cdbb 628d 2b3c 6a90 21bc 10cd 97bd
000000e0: 8ed0 6e3d 7e1f 793c 378b 0b3d ac3e 3c3d
000000f0: 0cfc 6dbd 48f6 78bd cd8d 2b3d c92d 53bd
00000100: 977a dfbc a6f7 aabd 4db8 a23b 1e15 07bc
00000110: 2a4d b9bd 774a 0b3d 19f5 193c 14e5 0bbd
00000120: 639f 95bd 525a 23bd 6eb9 d4bc 62d8 4c3d
00000130: ff13 103d 9551 b9bc 99b9 a33d 82b3 8a3d
00000140: 8092 5e3d e2a6 94bd f379 8fbd f937 c6bc
00000150: d2fc 67bd f898 91bd 5e0e 44ba 05e6 053d
00000160: 4c43 9c3c 2f67 53b9 1b39 8bbd 5fc9 1fbd
00000170: f562 c93b 816c 073d 0144 5a3d 6f52 913d
00000180: c638 373d e97f 49bd 6dbb 0ebd 2c9e 163d
00000190: 3473 a23c 52a6 3e3d 2e78 283d 2cb3 b2bd
000001a0: ea14 c3bd 79d7 74bd 4e21 58bd 9fb0 28bd
000001b0: 900b 98bd 057c 383d 6535 96bd 57b2 82bd
000001c0: af3b babd c42f 8fbc c2a8 47bd bf6c 02bd
000001d0: 3411 253d 4c51 d63b 4e1e 6dbd bf62 813d
000001e0: 603d b3bd dc25 253d e43f 423d eb08 92bd
000001f0: d1d7 54bd c956 aabd 2edb 7f3d e53d 67bd
00000200: 4177 68bb cdad adbc 6ef2 1cbd 97df c4bc
00000210: b9ea aabd 9692 1a3d 2007 05bd 843d 15bd
00000220: 2163 013c 62bc 15bd 4883 1dbd 8a0b ab3c
00000230: c67c 823d bca4 443d d649 26bd 2484 89bd
00000240: 6ce0 fcbc 860a 863d 5a97 d9bc aa5f 6fbc
00000250: 698c 82bd 0e02 d03c 17d6 16bc 9fcf a13d
00000260: 5b85 2cbd 705a 88bb c973 23bd ccbd 8bbd
00000270: b60c 803d 33e3 0a3d ce9c 963c 35f7 d73c
00000280: acf7 ddbc e421 41bd 40e6 a4bd 564d 9ebc
00000290: 7d95 e1bc 7307 8f3d 3172 07bd a5a7 abbc
000002a0: fa84 8fbc 8f8d de3c 1a97 aa3a e089 573d
000002b0: 093e 5dbd fe04 123d d875 323c 6342 8f3d
000002c0: a8b0 17bd 75c9 4ebb c53d 28bd 6d61 0bbb
000002d0: 93fc d1bb e215 a13d 97c8 9cbd 79d0 253b
000002e0: 866c d2bd 9b56 6cbd 5127 b2bd 616d 5fbc
000002f0: 1d13 fdbb 6114 bebd f85d 133d 458f 28bd
00000300: 495b 62bb 3daf 12bd 9847 1fbd 6ea1 82bc
00000310: 71c7 8cbd 0841 fbbc 6d24 adbd 6e0a 933d
00000320: 9d76 663c 5827 56bc 3de6 ce3c 32cf 03bd
00000330: eb5b 9dbd e002 93bd aa66 35bd 1482 37bd
00000340: 0730 aebb d1b5 8bbd c658 2b3d 8517 9dbc
00000350: 4143 52bd fd15 a0bd 6a07 433d 0009 033c
00000360: 5878 b8bd f8e7 243d 7128 87bc ae64 70bc
00000370: bdb5 8bbc 6b9b 6ebc cc3d 94bd 88e0 48bd
00000380: f1c4 2b3d 6ea4 6e3c d579 a8bc 5b73 433d
00000390: e0d3 4fbd 37c2 903d ff2d 0abd d826 9ebd
000003a0: 5382 aabd 1c80 3abc dcd5 063d 97b6 5ebd
000003b0: d15d b0bd 1f26 ecbc f905 b73c 87b9 0dbd
000003c0: e5b8 10bc 5a10 84bc 75c3 a2bd 6090 aabd
000003d0: e5e6 67bc e1b6 853b ddaf 863d bc9e ef3c
000003e0: 64fd 87bd fc8c d5bc af66 483d e04f b3bd
000003f0: 0e12 943a f588 42bd be75 a5bd 0096 47bd

sequential_2/conv2d_2/Conv2D f4 [64, 3, 3, 64]
-0.046653204 -0.0028379727 0.021662302 -0.010297235 -0.02274861 0.044259474 0.043982133 0.03302772
0.01774744 -0.049408257 -0.0117253 -0.034864385 -0.00524808 0.054292865 0.037098818 0.008638062
0.04580149 -0.062149316 -0.011844588 0.06467364 -0.034939874 -0.031106237 -0.0050003435 0.06528077
0.04126441 0.029505711 -0.022867158 0.06703394 0.053313937 0.0010935722 0.10358321 0.090373494
0.021152118 -0.039166186 0.09143054 -0.08402408 -0.057850394 -0.062613934 0.094227426 0.024195544
0.07285624 -0.03882225 0.02480062 0.016217241 0.05459111 0.050850794 -0.028936362 -0.054189052
-0.030794028 0.07020853 0.08077391 0.051938828 0.035022683 -0.029717362 0.058481906 0.04082631
0.060517367 0.04327387 0.07202441 -0.024107018 -0.10049241 0.05584598 -0.04816993 -0.020802528
0.0022732879 -0.04118013 -0.06947203 -0.001469688 -0.030082699 0.052758306 0.0528525 -0.032324158
0.0447466 0.012390977 0.0059039765 0.0005483926 0.05534821 -0.035447743 -0.012034262 -0.045015406
0.006826624 -0.055124782 0.038546115 0.06859791 0.055502538 -0.05363744 0.048827343 -0.04536229
0.031884164 -0.038234923 -0.029692747 -0.041098848 0.011191166 -0.013566082 0.07569463 -0.015859963
-0.009026239 -0.010152562 0.11005391 -0.034925476 -0.0065127304 -0.020450817 0.045719348 0.07431626
-0.021131845 -0.0015895062 0.02595461 0.08706104 0.10467756 -0.08892071 -0.0047330987 -0.075953074
-0.10080119 0.044939432 0.061821107 0.068799354 0.004332094 -0.044138428 -0.0013866584 -0.07680677
0.0076209004 0.09658428 0.07664175 0.1272066 -0.07623801 -0.055630285 0.002093048 -0.02647432
0.06444932 0.08303631 0.0030801664 -0.012666274 0.06213052 0.03636865 0.101556756 0.012092308
-0.053146023 -0.07771011 -0.029678743 -0.055704743 0.05215768 -0.049196724 0.07170509 -0.0067249644
0.07996661 0.022431437 -0.031395577 0.0062600262 0.079524525 0.020730983 -0.07087696 -0.0780956
0.069944724 -0.00649818 0.015484075 -0.05871993 0.116280615 -0.011458794 0.118412845 0.021346444
-0.01373349 0.0034290766 0.051013216 -0.051762044 0.042417526 -0.009977191 0.015052942 0.022200115
-0.013352607 -0.037622195 -0.04770462 0.08473509 0.07015644 -0.058796246 0.041683126 0.020086356
0.011870167 0.07179773 0.014763182 0.0077981986 -0.017951444 -0.05352073 -0.06025975 -0.044672027
-0.045195933 0.012649874 0.08248468 -0.010980627 -0.046473946 0.031710282 0.038772345 -0.05432419
0.05657882 -0.028057905 -0.027482867 0.07573365 0.044487357 -0.019258942 0.095536456 0.04802558
0.03573882 -0.044043988 -0.01329056 -0.08661184 0.062232044 -0.06545334 0.042739365 -0.08026504
0.014810128 -0.08222018 -0.005162798 0.009404546 -0.052257095 0.06292823 -0.019755218 0.05289079
0.031183882 0.03420587 -0.052687183 -0.033141352 0.06536158 0.030314432 0.13000146 -0.03144594
0.033724617 -0.0343174 0.0128534045 -0.07198991 -0.03144858 -0.036973782 0.07098608 0.074551016
-0.06523142 0.03884882 -0.03631042 0.10419061 -0.0319884 -0.0051330323 -0.039322358 0.052800972
-0.05931947 -0.014361565 0.0627072 -0.0021044752 0.051818695 -0.011199075 -0.032115538 -0.056479678
-0.019020064 0.054473083 0.11352258 0.05138023 -0.10717112 0.041020732 0.02801336 0.034731176
00000000: 6e17 3fbd 48fd 39bb 2475 b13c bcb5 28bc
00000010: 4b5b babc 6c49 353d 9c26 343d 1348 073d
00000020: 1463 913c 5060 4abd 791b 40bc f5cd 0ebd
00000030: 16f8 abbb 3262 5e3d eef4 173d a886 0d3c
00000040: 589a 3b3d 4890 7ebd ce0f 42bc 9d73 843d
00000050: 1d1d 0fbd 82d2 febc ecd9 a3bb edb1 853d
00000060: df04 293d f6b5 f13c e853 bbbc 1749 893d
00000070: b75f 5a3d 3256 8f3a 6f23 d43d bd15 b93d
00000080: 3547 ad3c b96c 20bd ef3f bb3d d114 acbd
00000090: 89f4 6cbd bc3b 80bd 4ffa c03d bc35 c63c
000000a0: a735 953d 1404 1fbd ab2a cb3c 05da 843c
000000b0: ee9a 5f3d ec48 503d f30b edbc 57f5 5dbd
000000c0: c243 fcbc 7dc9 8f3d cb6c a53d cfbd 543d
000000d0: f273 0f3d d371 f3bc b98a 6f3d 7d39 273d
000000e0: 0fe1 773d f13f 313d 8981 933d 157c c5bc
000000f0: f7ce cdbd c1be 643d d54d 45bd 106a aabc
00000100: 71fb 143b 7fac 28bd 5a47 8ebd 8ca2 c0ba
00000110: fe6f f6bc 1819 583d dd7b 583d 5666 04bd
00000120: 3648 373d 8603 4b3c 2576 c13b 01c2 0f3a
00000130: ceb4 623d a731 11bd 5a2b 45bc 1362 38bd
00000140: dfb1 df3b 86ca 61bd 88e2 1d3d 107d 8c3d
00000150: a156 633d efb2 5bbd 2eff 473d cfcd 39bd
00000160: f898 023d 399c 1cbd 343e f3bc 4457 28bd
00000170: 275b 373c 4644 5ebc c905 9b3d c1ec 81bc
00000180: cae2 13bc ee56 26bc f263 e13d 040e 0fbd
00000190: be68 d5bb 7988 a7bc 3644 3b3d 2033 983d
000001a0: b11c adbc fa56 d0ba c39e d43c 0f4d b23d
000001b0: 3061 d63d 101c b6bd 1c18 9bbb 498d 9bbd
000001c0: db70 cebd 6912 383d 2138 7d3d ade6 8c3d
000001d0: 3df4 8d3b 7fca 34bd 89c0 b5ba de4c 9dbd
000001e0: bfb8 f93b fbcd c53d 5af6 9c3d 7242 023e
000001f0: ac22 9cbd 95dc 63bd 852b 093b ace0 d8bc
00000200: 01fe 833d f10e aa3d 9edc 493b 3486 4fbc
00000210: 927c 7e3d 4bf7 143d fdfc cf3d d11e 463c
00000220: a5af 59bd 7a26 9fbd d620 f3bc a82a 64bd
00000230: 4ba3 553d 8182 49bd 1eda 923d 175d dcbb
00000240: 89c5 a33d 22c2 b73c a698 00bd e820 cd3b
00000250: c1dd a23d 06d4 a93c f127 91bd 96f0 9fbd
00000260: 2e3f 8f3d afee d4bb ebb0 7d3c 4f84 70bd
00000270: 8824 ee3d aabd 3bbc 6f82 f23d bdde ae3c
00000280: 6f02 61bc 5cba 603b 3cf3 503d 7004 54bd
00000290: 00be 2d3d 5f77 23bc 9da0 763c 04dd b53c
000002a0: e5c4 5abc bb19 1abd eb65 43bd 9789 ad3d
000002b0: 2eae 8f3d 55d4 70bd edbb 2a3d 248c a43c
000002c0: 177b 423c b00a 933d 46e1 713c 0888 ff3b
000002d0: e80e 93bc 8e38 5bbd edd2 76bd 04fa 36bd
000002e0: 5f1f 39bd 6b41 4f3c baed a83d 16e8 33bc
000002f0: 775b 3ebd a4e2 013d c0cf 1e3d 0b83 5ebd
00000300: 31bf 673d b1d9 e5bc c023 e1bc 3e1a 9b3d
00000310: 6038 363d eec4 9dbc 9ea8 c33d 78b6 443d
00000320: de62 123d 7867 34bd a6c0 59bc 8c61 b1bd
00000330: 07e7 7e3d 670c 86bd 790f 2f3d ff61 a4bd
00000340: 2ea6 723c 0e63 a8bd b02c a9bb 8615 1a3c
00000350: 890b 56bd 84e0 803d b2d5 a1bc 03a4 583d
00000360: 5775 ff3c 741b 0c3d 84ce 57bd 3abf 07bd
00000370: 4bdc 853d f955 f83c 1a1f 053e 75cd 00bd
00000380: d322 0a3d 6790 0cbd 1697 523c 726f 93bd
00000390: 3ad0 00bd d271 17bd 2661 913d 34ae 983d
000003a0: 0d98 85bd f11f 1f3d 3cba 14bd e361 d53d
000003b0: 4506 03bd ff32 a8bb 7b10 21bd d545 583d
000003c0: f9f8 72bd c54c 6bbc a26c 803d 3ceb 09bb
000003d0: d73f 543d 537c 37bc 958b 03bd 3c57 67bd
000003e0: f7cf 9bbc 2b1f 5f3d 877e e83d 1374 523d
000003f0: 887c dbbd 5b05 283d 467c e53c 4742 0e3d

sequential_2/conv2d_3/Conv2D f4 [64, 3, 3, 64]
-0.032419164 0.004878804 -0.07309258 -0.02946167 -0.06862373 0.06372702 -0.051580846 0.019566007
0.06941542 0.009572385 0.02524136 0.04262433 -0.03592166 0.017400226 -4.0832736e-05 -0.001148394
0.011412166 0.011871656 -0.035572343 0.046364255 -0.06317554 0.0510319 -0.012514051 -0.011551258
0.01740264 0.03645556 0.04148301 0.038059413 0.056415975 0.015193879 0.05166824 -0.040269583
0.052649885 0.035093494 0.031224072 0.01764427 0.015705967 0.05334771 0.01410514 0.020104442
-0.04342529 0.06210646 -0.0068183783 -0.023651142 -0.04011606 -0.021709353 -0.022575993 0.01834549
-0.042136084 -0.020345518 0.016081396 0.012544734 0.0018245555 -0.02316616 -0.02637412 0.060809065
-0.05335068 -0.077740364 -0.073403075 0.05641671 -0.04850799 -0.042125158 -0.03069813 0.048856147
-0.02205489 -0.014388033 0.028140163 0.04977482 0.028381204 -0.00853037 -0.04102348 -0.01342012
0.055058178 -0.017863631 0.026571693 0.047078203 -0.023347657 -0.033000376 0.009448337 0.0028118722
-0.046347696 -0.05278239 -0.06642954 0.013805947 0.015389121 0.045997478 -0.04676053 0.03582771
0.051098395 0.028777534 -0.076078705 0.013422394 0.027346483 -0.031965073 0.059105933 0.01224205
-0.04581586 0.0020705226 -0.0082890885 0.028170051 -0.032153577 -0.060182706 0.040662315 -0.018270759
0.0010281189 -0.04801116 0.05903622 -0.017598901 0.023073832 0.047149964 -0.09167348 0.03187208
-0.0747331 -0.084809884 0.0654136 0.06075884 -0.010090484 -0.03538705 0.010211323 0.0271548
0.0037053982 0.016173497 -0.0412579 0.020733893 -0.066907264 -0.0050861137 -6.1524406e-05 -0.047624107
0.049074445 -0.06302028 -0.07275332 -0.01675207 -0.051153332 -0.0042693615 -0.06599351 -0.05918349
-0.044563144 -0.004469043 -0.02850793 0.04494811 0.03377783 -0.014018356 -0.06834184 -0.06430155
0.040331755 0.039316393 -0.059207436 -0.06665621 -0.05056036 -0.01629127 -0.054715768 -0.0395404
-0.02235452 -0.014073674 0.020594755 -0.047618177 -0.07716217 -0.053037375 0.020530995 -0.033195358
-0.06539008 0.059502736 0.056296874 -0.059441246 -0.009087768 0.028639374 0.0071039554 -0.006263584
-0.042783584 -0.045609225 -0.0119940955 -0.07737505 -0.047745228 0.01776336 -0.053256065 0.010974027
0.0058178636 0.012947719 -0.036540423 0.026822004 -0.05489886 -0.062397964 -0.02282192 -0.0076805702
0.025266016 -0.018992258 0.024562174 0.011808606 -0.03435604 -0.056298815 0.027079327 0.05151816
0.029760104 -0.04065168 -0.050523244 0.046675827 0.017742392 -0.07065188 -0.026684495 0.03062528
0.070199534 0.04810959 0.054496042 0.048483346 -0.028744306 0.021615095 -0.030379683 -0.0339422
-0.031030454 0.044092327 -0.040203046 -0.0242384 0.048536062 -0.05406965 0.0583148 0.03174174
0.06972347 -0.04266957 -0.058499712 0.005797834 -0.028163955 0.006237748 -0.03750931 -0.06922087
-0.051466748 0.055185158 -0.017485486 0.027204134 0.022567928 -0.10228474 0.045531884 -0.009182616
0.067043945 -0.05352899 0.017165724 -0.0054487325 -0.043197237 0.0701323 -0.09493718 -0.031610813
-0.067275375 -0.061579686 0.06359753 0.017927425 0.017163862 -0.0075301453 -0.028213754 -0.019807663
0.001300985 0.04235144 -0.010397472 -0.050495118 -0.027619556 -0.058929022 -0.023320077 -0.037698448
00000000: f5c9 04bd 60de 9f3b 90b1 95bd 9a59 f1bc
00000010: 998a 8cbd 5083 823d 7046 53bd e448 a03c
00000020: ac29 8e3d 7ed5 1c3c f8c6 ce3c d996 2e3d
00000030: 9722 13bd eb8a 8e3c d143 2bb8 b585 96ba
00000040: 18fa 3a3c 5681 423c 4eb4 11bd 72e8 3d3d
00000050: 2d62 81bd d306 513d bc07 4dbc 7d41 3dbc
00000060: fb8f 8e3c 6d52 153d 17ea 293d 30e4 1b3d
00000070: 7014 673d bfef 783c 14a2 533d b8f1 24bd
00000080: 68a7 573d 32be 0f3d a0c9 ff3c b78a 903c
00000090: cda9 803c 2183 5a3d 3f19 673c 12b2 a43c
000000a0: b8de 31bd 5863 7e3d b46c dfbb 0ac0 c1bc
000000b0: bd50 24bd d0d7 b1bc 4af1 b8bc 4849 963c
000000c0: e396 2cbd a5ab a6bc 22bd 833c 6e88 4d3c
000000d0: ec25 ef3a f5c6 bdbc 8a0e d8bc ed12 793d
000000e0: 3e86 5abd 5736 9fbd 5a54 96bd 3515 673d
000000f0: 50b0 46bd 6e8b 2cbd a57a fbbc 621d 483d
00000100: 75ac b4bc c9bb 6bbc 3386 e63c afe0 4b3d
00000110: b37f e83c f7c2 0bbc 3d08 28bd 10e0 5bbc
00000120: af84 613d c056 92bc e1ac d93c 13d5 403d
00000130: 9643 bfbc 672b 07bd 33cd 1a3c 6347 383b
00000140: 15d7 3dbd 5932 58bd 360c 88bd 5732 623c
00000150: a722 7c3c da67 3c3d f887 3fbd 14c0 123d
00000160: 8d4c 513d ddbe eb3c 27cf 9bbd 9ae9 5b3c
00000170: bb05 e03c cfed 02bd 1019 723d e192 483c
00000180: 69a9 3bbd 9bb1 073b f5ce 07bc e1c4 e63c
00000190: 78b3 03bd 2482 76bd 878d 263d 8fac 95bc
000001a0: f2c1 863a 5aa7 44bd f7cf 713d 922b 90bc
000001b0: 5505 bd3c 5220 413d 4ebf bbbd 4c8c 023d
000001c0: ab0d 99bd ceb0 adbd 91f7 853d 43de 783d
000001d0: 8f52 25bc 03f2 10bd 654d 273c be73 de3c
000001e0: 44d6 723b 487e 843c 0bfe 28bd 20da a93c
000001f0: ad06 89bd 6aa9 a6bb aa06 81b8 7f11 43bd
00000200: 4902 493d c710 81bd b1ff 94bd a33b 89bc
00000210: 2886 51bd 00e6 8bbb 9b27 87bd 636a 72bd
00000220: d887 36bd 0d71 92bb 7689 e9bc 821b 383d
00000230: 9f5a 0a3d 3fad 65bc cef6 8bbd 88b0 83bd
00000240: e932 253d 3a0a 213d 7f83 72bd 0d83 88bd
00000250: 6118 4fbd 4575 85bc a41d 60bd 1df5 21bd
00000260: d420 b7bc 4495 66bc 55b6 a83c 470b 43bd
00000270: 3307 9ebd b83d 59bd 9e30 a83c dbf7 07bd
00000280: 3ceb 85bd 24b9 733d 8d97 663d aa78 73bd
00000290: dde4 14bc 1f9d ea3c 4cc8 e83b c03e cdbb
000002a0: d73d 2fbd bdd0 3abd e282 44bc cf76 9ebd
000002b0: 8090 43bd 7784 913c 0823 5abd 68cc 333c
000002c0: c7a3 be3b ab22 543c 69ab 15bd d2b9 db3c
000002d0: a1dd 60bd 0295 7fbd 09f5 babc 4bad fbbb
000002e0: adfa ce3c a795 9bbc 9d36 c93c e278 413c
000002f0: ebb8 0cbd 9699 66bd 77d5 dd3c b504 533d
00000300: 76cb f33c 6082 26bd 76f1 4ebd 272f 3f3d
00000310: 7e58 913c efb1 90bd 7199 dabc dee1 fa3c
00000320: c6c4 8f3d 900e 453d 3e37 5f3d 7996 463d
00000330: 2e79 ebbc 2412 b13c d0de f8bc fa06 0bbd
00000340: 9433 febc 289a 343d f3ab 24bd 9c8f c6bc
00000350: c0cd 463d 2378 5dbd 80db 6e3d a003 023d
00000360: 2ecb 8e3d 49c6 2ebd 659d 6fbd c2fb bd3b
00000370: 18b8 e6bc 0666 cc3b 5da3 19bd acc3 8dbd
00000380: ccce 52bd d509 623d b93d 8fbc 34db de3c
00000390: 60e0 b83c a97a d1bd a47f 3a3d af72 16bc
000003a0: 564e 893d 3741 5bbd 229f 8c3c 488b b2bb
000003b0: 96ef 30bd 86a1 8f3d 6d6e c2bd 577a 01bd
000003c0: acc7 89bd fb3a 7cbd 6c3f 823d 89dc 923c
000003d0: 3a9b 8c3c 70bf f6bb 8820 e7bc ae43 a2bc
000003e0: d085 aa3a b478 2d3d 295a 2abc f8d3 4ebd
000003f0: 6842 e2bc 8f5f 71bd bf09 bfbc b069 1abd

sequential_2/conv2d_4/Conv2D f4 [64, 3, 3, 64]
0.07245215 0.026503801 -0.00645217 0.007317421 0.01952774 -0.054226123 0.0059822127 0.019369274
-0.06293736 -0.005332423 -0.023885725 -0.037846614 -0.07813915 -0.023872113 -0.047113705 -0.013750402
-0.08673103 0.026164928 -0.020573532 0.05165501 0.020630002 -0.013246251 -0.02806593 0.012341315
0.009621567 -0.014825532 0.040530708 0.0102494005 -0.056487255 0.038172744 -0.0009003358 0.07330428
-0.09448055 -0.13883507 -0.052219383 -0.051065642 -0.08141196 0.024156349 -0.048266165 -0.005785607
0.02503806 0.09441941 0.048172385 -0.13946898 -0.07140959 0.015333862 0.004268746 0.03840287
0.070187576 -0.02116095 0.013929351 0.03211752 0.016419388 0.054621495 0.04610952 0.074281394
0.0069531626 0.01743406 -0.15383601 0.041502714 -0.028457776 0.04932058 0.057584662 -0.06954243
-0.009461484 -0.03710275 0.028936526 0.01886107 0.07843546 -0.032737598 0.050623737 0.048961107
0.02565101 -0.118639976 -0.05256179 0.015466357 0.014336161 0.023614187 -0.0019907653 0.019486874
-0.07897903 -0.001666047 0.083672054 0.04395251 -0.043918904 0.045502465 0.05921421 0.0062358086
0.051794123 -0.03470936 0.0070378776 0.0087414235 0.055672854 0.0027745378 -0.0014586854 -0.035559077
-0.056532655 -0.0966498 0.03854876 -0.026261656 -0.029947972 0.041439913 0.048068706 0.01177899
-0.114405714 -0.004227086 -0.019982578 -0.055753246 -0.15986788 -0.03747716 -0.02125748 -0.04789454
0.05970213 0.06519284 0.038706444 0.023042977 -0.06666077 0.025530824 -0.05253621 0.0547467
0.07671702 0.024338504 -0.11904111 0.03273646 -0.010379363 -0.038821682 0.018061671 -0.0063822023
-0.010058522 -0.014775516 -0.034367252 0.07586595 0.047488995 0.06672755 0.028244205 0.06665712
0.04104141 -0.0732167 -0.0058404724 0.058195733 0.052674495 0.018152831 0.008793581 0.03181482
-0.003418377 0.057827022 0.037766308 -0.055042792 -0.07049451 -0.06054981 -0.0028066977 -0.07207667
0.012159961 0.05578717 0.03160063 0.049868338 -0.07473731 0.056306 0.048344597 -0.023302983
-0.0070885927 -0.09848139 0.07614532 -0.05463918 -0.010035131 0.068186104 0.0419731 -0.043796953
-0.08064741 0.022293607 -0.013992875 -0.049721673 -0.12427212 -0.022869004 -0.02020276 -0.030879505
0.020844292 -0.05075275 0.031972308 0.018750839 0.034629002 0.025577314 0.04293458 0.015080169
0.02345789 0.03275699 -0.0966678 -0.04843828 0.004232498 -0.058598895 0.09107747 -0.063799
-0.024144465 0.03349854 0.05022968 0.016206462 -0.0036310982 -0.004537891 0.062245537 -0.0012162498
-0.05222103 -0.057152763 0.058857627 -0.052898426 0.0045757066 0.05878344 -0.009182579 -0.04274477
0.017202718 -0.027749795 -0.026042432 0.020947723 0.029718556 -0.00058544555 0.039332323 -0.0053803287
0.045481604 0.014658637 -0.012943651 -0.10691958 -0.028794669 -0.026213411 -0.040762465 0.07240693
-0.018285707 -0.1491375 -0.0008333002 0.0541143 -0.042885765 0.05846516 0.023985019 -0.055205088
-0.041950878 0.065734714 0.05850374 -0.030229324 -0.07545785 -0.021688927 0.031933542 -0.024733867
-0.0075026657 0.030961897 -0.039519556 -0.040543593 -0.040870454 -0.020232197 -0.003604849 -0.028434154
-0.026071599 -0.0369517 0.02035231 0.025201146 0.038883373 -0.013102102 0.06829949 -0.079295516
00000000: cb61 943d 801e d93c ba6c d3bb fac6 ef3b
00000010: a4f8 9f3c 361c 5ebd 7006 c43b 50ac 9e3c
00000020: 4de5 80bd 9bbb aebb ffab c3bc 0d05 1bbd
00000030: 6b07 a0bd 738f c3bc 4dfa 40bd 5e49 61bc
00000040: 0aa0 b1bd d557 d63c d389 a8bc 3494 533d
00000050: 4000 a93c ce06 59bc 85ea e5bc 3a33 4a3c
00000060: c7a3 1d3c cae6 72bc 8703 263d 1aed 273c
00000070: 2e5f 67bd 065b 1c3d 8304 6cba 8e20 963d
00000080: 057f c1bd c82a 0ebe fee3 55bd 352a 51bd
00000090: 50bb a6bd 89e3 c53c beb2 45bd 3095 bdbb
000000a0: 9e1c cd3c f75e c13d 6850 453d f5d0 0ebe
000000b0: 313f 92bd e13a 7b3c d6e0 8b3b 544c 1d3d
000000c0: 81be 8f3d bb59 adbc ef37 643c a98d 033d
000000d0: f481 863c caba 5f3d 56dd 3c3d d820 983d
000000e0: 5bd7 e33b e0d1 8e3c 3087 1dbe c0fe 293d
000000f0: 4820 e9bc 6004 4a3d e5dd 6b3d 436c 8ebd
00000100: 5704 1bbc 0ef9 17bd 4b0c ed3c 8882 9a3c
00000110: c5a2 a03d dc17 06bd d65a 4f3d 718b 483d
00000120: 1122 d23c 84f9 f2bd 084b 57bd 9a66 7d3c
00000130: 38e2 6a3c 8a72 c13c 8077 02bb f0a2 9f3c
00000140: c2bf a1bd 435f daba 415c ab3d 8c07 343d
00000150: 4fe4 33bd cb60 3a3d 998a 723d c155 cc3b
00000160: 1326 543d 672b 0ebd ff9d e63b 3038 0f3c
00000170: 3809 643d 05d5 353b 5c31 bfba 65a6 11bd
00000180: c98e 67bd 55f0 c5bd 4ee5 1d3d af22 d7bc
00000190: 7355 f5bc e6bc 293d b1e3 443d aafc 403c
000001a0: 8b4d eabd 5e83 8abb 81b2 a3bc 845d 64bd
000001b0: 68b4 23be a781 19bd 2b24 aebc 112d 44bd
000001c0: 388a 743d d383 853d a68a 1e3d a0c4 bc3c
000001d0: 7185 88bd 0526 d13c 3530 57bd 133e 603d
000001e0: d01d 9d3d 8b61 c73c d3cb f3bd ab16 063d
000001f0: 340e 2abc 7c03 1fbd 12f6 933c cb21 d1bb
00000200: 80cc 24bc 0215 72bc adc4 0cbd 9b5f 9b3d
00000210: d283 423d 74a8 883d 6460 e73c 8783 883d
00000220: 0a1b 283d a3f2 95bd 6f61 bfbb a65e 6e3d
00000230: 36c1 573d 3fb5 943c f412 103c 4250 023d
00000240: d906 60bb 07dc 6c3d d8b0 1a3d 8d74 61bd
00000250: 6d5f 90bd 1403 78bd 93f0 37bb ef9c 93bd
00000260: 933a 473c 1681 643d aa6f 013d be42 4c3d
00000270: e00f 99bd 1fa1 663d fc04 463d e6e5 bebc
00000280: 6d47 e8bb 9cb0 c9bd 14f2 9b3d 55cd 5fbd
00000290: 646a 24bc 28a5 8b3d fceb 2b3d 6f64 33bd
000002a0: 782a a5bd 15a1 b63c 5f42 65bc f4a8 4bbd
000002b0: 6282 febd c757 bbbc 4280 a5bc 04f7 fcbc
000002c0: a6c1 aa3c 1ee2 4fbd 65f5 023d 5c9b 993c
000002d0: 24d7 0d3d 8487 d13c 2cdc 2f3d d012 773c
000002e0: c32a c03c 322c 063d c4f9 c5bd 3867 46bd
000002f0: c4b0 8a3b 6505 70bd d386 ba3d 0da9 82bd
00000300: 9dca c5bc c435 093d a3bd 4d3d 6ac3 843c
00000310: b8f7 6dbb 97b2 94bb 2df5 7e3d 926a 9fba
00000320: b8e5 55bd 0419 6abd b214 713d 05ac 58bd
00000330: cfef 953b e8c6 703d 8772 16bc 2415 2fbd
00000340: b7ec 8c3c 8a53 e3bc f056 d5bc 8f9a ab3c
00000350: 5474 f33c 9678 19ba ee1a 213d 784d b0bb
00000360: eb4a 3a3d c82a 703c 9b11 54bc a7f8 dabd
00000370: cce2 ebbc 82bd d6bc 8bf6 26bd 164a 943d
00000380: e8cb 95bc 80b7 18be d471 5aba f5a6 5d3d
00000390: fca8 2fbd 2a79 6f3d 3b7c c43c bb1e 62bd
000003a0: afd4 2bbd ec9f 863d 9ea1 6f3d 7da3 f7bc
000003b0: a589 9abd faac b1bc bfcc 023d ae9e cabc
000003c0: ecd8 f5bb cea3 fd3c 42df 21bd 0a11 26bd
000003d0: c767 27bd febd a5bc 553f 6cbb beee e8bc
000003e0: 1b94 d5bc aa5a 17bd e3b9 a63c a272 ce3c
000003f0: 2c44 1f3d 33aa 56bc 9ae0 8b3d b065 a2bd

sequential_2/conv2d_5/Conv2D f4 [64, 3, 3, 64]
-0.064365566 0.004758782 -0.045915764 -0.118481845 0.016982649 0.05934571 0.0049560242 -0.050789308
-0.07827626 0.027207991 0.0034295113 -0.029969277 0.09222353 -0.015837383 -0.022661345 -0.010720931
0.07180892 0.0028956807 0.021804554 0.062377658 -0.0021380887 -0.034389995 0.065996334 0.021253055
-0.057491504 -0.07349134 -0.04522996 0.040579025 0.012355193 -0.052657116 0.061858956 -0.057462092
0.056416597 -0.03119895 -0.01621722 -0.073732786 0.03827508 -0.0056783976 -0.0005462286 -0.04480632
-0.084100775 0.05740391 -0.007996579 0.0453107 0.045019303 -0.01123923 0.010254529 0.014149163
-0.078447394 0.06762684 -0.0072233435 0.10532909 0.0746936 0.031610887 -0.013249116 0.057599995
-0.04846658 -0.046464283 0.053892467 0.025337908 -0.0034121417 -0.046714377 0.037404574 -0.05105933
-0.029627098 -0.0079593 0.04346963 0.035296567 -0.029338509 0.051067855 -0.04237847 -0.047132075
-0.091997564 0.077191226 0.019027617 -0.031235337 -0.008117156 -0.052248403 -0.049167607 -0.032752782
-0.016119054 -0.031870157 0.08898227 0.026487999 0.02256128 -0.022440469 0.017999383 0.020346459
-0.036180142 -0.09563976 0.04359999 -0.06312227 0.051258065 -0.057085186 0.072500795 0.06804759
-0.05758556 -0.019699141 -0.13869014 -0.06316022 -0.0036908183 -0.077379026 -0.026832765 0.008612092
-0.0627968 0.04429496 0.018131172 0.12957852 -0.040800996 0.07364065 -0.066407025 0.011522443
-0.137985 0.039721064 0.024075823 0.14460388 0.09971489 0.07434368 0.022547612 0.064088024
0.055083565 -0.07293149 0.059041277 -0.048799764 -0.052898847 -0.07801864 0.036165603 -0.0036923958
-0.1025929 0.069193356 -0.06243397 0.009580493 0.008918702 0.089458086 0.045956947 0.049025517
-0.05337836 0.039549295 0.025710337 -0.04055826 -0.0042348006 0.017571615 -0.050777078 -0.019492153
-0.03662274 0.021460414 0.040417638 -0.076283254 0.043677226 0.049815997 -0.07061658 0.045174368
0.07992601 -0.028606096 0.06376633 0.020207807 0.031380318 -0.046897963 0.061589208 0.05935849
-0.07752649 -0.024788504 0.0022631534 0.073545136 -0.044051506 0.014848351 -0.095689036 0.012649497
-0.05128374 -0.0025833782 0.05358435 0.0966492 0.012020638 -0.0022665989 0.00029428783 0.08156796
0.039966468 -0.03875344 -0.092207074 -0.07580723 0.014990996 0.053064957 0.06685656 -0.04237883
0.029926103 -0.056183223 -0.06447656 -0.030906422 -0.01493412 0.013755086 -0.10789839 0.03519139
-0.050019197 0.08704271 0.020837113 -0.09142678 -0.0866488 -0.06898423 -0.0014655233 0.0030351658
-0.041245695 0.068066746 -0.041012075 -0.03301736 -0.05346207 -0.033272434 -0.05346999 0.004880853
0.060356844 -0.04244833 0.11063934 0.029835016 -0.028778117 -0.028412366 -0.059189316 -0.017316606
0.056025356 -0.010394761 0.05309783 0.019595174 0.030906375 -0.024568012 0.023092968 0.045345597
-0.060565084 0.080086544 -0.00832727 -0.06430275 0.06316743 0.04823635 -0.067235745 0.016878681
0.07468601 0.10454779 0.01826266 0.02377208 0.03397683 -0.067691155 -0.077709556 0.004939154
-0.1280793 -0.010791665 0.046865273 -0.04446175 0.093786836 -0.05703717 0.038198188 0.037996948
0.05111763 0.061231796 0.13048738 -0.011047884 -0.009102351 0.026836516 -0.11008537 0.049379293
00000000: 18d2 83bd 8fef 9b3b 2b12 3cbd 9ca6 f2bd
00000010: 321f 8b3c 7d14 733d 2566 a23b 7308 50bd
00000020: 4e4f a0bd 4be3 de3c a7c1 603b 2182 f5bc
00000030: b1df bc3d 66bd 81bc 49a4 b9bc d8a6 2fbc
00000040: 8e10 933d 76c5 3d3b 779f b23c b77f 7f3d
00000050: 2d1f 0cbb 86dc 0cbd 1629 873d e31a ae3c
00000060: 367c 6bbd a182 96bd 0d43 39bd 3136 263d
00000070: 6f6d 4a3c fdae 57bd d15f 7d3d 5f5d 6bbd
00000080: 1715 673d f194 ffbc fad9 84bc 3701 97bd
00000090: 55c6 1c3d da11 babb c830 0fba d586 37bd
000000a0: 073d acbd 5d20 6b3d 1504 03bc b697 393d
000000b0: 2966 383d bf24 38bc 9d02 283c e4d1 673c
000000c0: 07a9 a0bd f17f 8a3d ccb1 ecbb c7b6 d73d
000000d0: f5f8 983d 6b7a 013d d212 59bc f9ed 6b3d
000000e0: e584 46bd 5551 3ebd 59be 5c3d 7291 cf3c
000000f0: 3d9e 5fbb 9357 3fbd 8a35 193d 9723 51bd
00000100: 87b4 f2bc b967 02bc 360d 323d 2293 103d
00000110: 5057 f0bc 872c 513d 0c95 2dbd 900d 41bd
00000120: 3869 bcbd 6f16 9e3d cedf 9b3c 40e1 ffbc
00000130: d2fd 04bc 6c02 56bd f963 49bd c827 06bd
00000140: 1b0c 84bc 488a 02bd 563c b63d 5cfd d83c
00000150: 6fd2 b83c 13d5 b7bc 7173 933c 9ead a63c
00000160: a131 14bd c7de c3bd e795 323d 4046 81bd
00000170: faf3 513d 28d2 69bd 4c7b 943d 895c 8b3d
00000180: d6de 6bbd 1860 a1bc ca04 0ebe 255a 81bd
00000190: a8e1 71bb e578 9ebd 63d0 dbbc bb19 0d3c
000001a0: 9c9b 80bd a26e 353d d387 943c 3bb0 043e
000001b0: f21e 27bd e9d0 963d 6800 88bd a1c8 3c3c
000001c0: f14b 0dbe 8eb2 223d a93a c53c 0a13 143e
000001d0: 5237 cc3d 8041 983d c5b5 b83c 9540 833d
000001e0: 4e9f 613d 1b5d 95bd 44d5 713d 43e2 47bd
000001f0: 76ac 58bd 3dc8 9fbd 6222 143d 1ffc 71bb
00000200: 3a1c d2bd 3fb5 8d3d c3ba 7fbd 80f7 1c3c
00000210: bf1f 123c cd35 b73d 5a3d 3c3d fbce 483d
00000220: 44a3 5abd 71fe 213d 7c9e d23c 6b20 26bd
00000230: 15c4 8abb 59f2 8f3c a0fb 4fbd 02ae 9fbc
00000240: ba01 16bd c0cd af3c f78c 253d 653a 9cbd
00000250: e4e6 323d dc0b 4c3d 6d9f 90bd c208 393d
00000260: 3fb0 a33d 5557 eabc ec97 823d d88a a53c
00000270: a688 003d 1418 40bd f744 7c3d e321 733d
00000280: 35c6 9ebd 4311 cbbc 6a51 143b d59e 963d
00000290: 5a6f 34bd 7f46 733c 9df8 c3bd d63f 4f3c
000002a0: e60e 52bd e54d 29bb 437b 5b3d 04f0 c53d
000002b0: 36f2 443c 388b 14bb a54a 9a39 1a0d a73d
000002c0: e1b3 233d edbb 1ebd 10d7 bcbd d240 9bbd
000002d0: cb9c 753c a45a 593d 18ec 883d 6d95 2dbd
000002e0: 9627 f53c 6120 66bd 490c 84bd 772f fdbc
000002f0: 3dae 74bc 035d 613c d5f9 dcbd d924 103d
00000300: eee0 4cbd 7343 b23d 98b2 aa3c f73d bbbd
00000310: ed74 b1bd 9b47 8dbd cd16 c0ba a2e9 463b
00000320: 3ff1 28bd 9466 8b3d 47fc 27bd 363d 07bd
00000330: 0bfb 5abd ad48 08bd 5903 5bbd 90ef 9f3b
00000340: bd38 773d 4dde 2dbd e196 e23d 9068 f43c
00000350: 16c0 ebbc 0dc1 e8bc 7f70 72bd 8edb 8dbc
00000360: d87a 653d ca4e 2abc 1c7d 593d 0f86 a03c
00000370: 5e2f fd3c db42 c9bc 772d bd3c 4ebc 393d
00000380: 1813 78bd 6a04 a43d 1a6f 08bc 29b1 83bd
00000390: ed5d 813d 7b93 453d e5b2 89bd 2945 8a3c
000003a0: fbf4 983d 271d d63d 939b 953c aabd c23c
000003b0: 4a2b 0b3d a9a1 8abd 3026 9fbd a0d8 a13b
000003c0: 3827 03be 86cf 30bc cdf5 3f3d 861d 36bd
000003d0: 5013 c03d cf9f 69bd b475 1c3d b0a2 1b3d
000003e0: b860 513d 31ce 7a3d 7c9e 053e 2f02 35bc
000003f0: 0722 15bc 41d8 db3c 7074 e1bd f141 4a3d

sequential_2/dense_1/BiasAdd/ReadVariableOp f4 [6]
0.07092876 0.003121877 -0.05603916 0.013035497 -0.05539422 0.018002154
00000000: 1943 913d 6898 4c3b 5189 65bd d692 553c
00000010: 0de5 62bd 4179 933c

sequential_2/dense/BiasAdd/ReadVariableOp f4 [64]
-0.008743654 0.014036185 -0.017849779 -0.01680646 -0.029349588 -0.051613174 0.0039867437 -0.024046496
-0.010158559 0.085068144 -0.07012293 -0.0050101224 0.009750681 0.09256763 -0.05534 0.044029087
0.00988058 0.023448061 0.03155633 -0.0104294345 0.041506972 0.02624092 -0.043679696 0.0056283083
0.058319353 0.02629195 0.008607536 -0.019487094 -0.012076745 -0.013284099 -0.019495184 -0.004523793
-0.011918495 0.023652552 -0.028830053 -0.010241607 0.013657692 -0.0007642079 -0.007523705 0.043792296
0.037821785 -0.002249002 0.10178707 -0.029155748 -0.013821961 -0.01676345 0.01707268 0.06603441
-0.033312988 0.07907561 0.02884037 -0.011443927 -0.028801927 -0.011582623 -0.03091836 0.06470673
-0.021991583 -0.01688552 0.0007676387 -0.015850868 0.06322668 0.06882565 -0.02218562 -0.013869693
00000000: 8b41 0fbc 07f8 653c b339 92bc b4ad 89bc
00000010: 8c6e f0bc 5668 53bd 3ba3 823b 28fd c4bc
00000020: 1670 26bc 3538 ae3d 9c9c 8fbd f42b a4bb
00000030: 52c1 1f3c 1994 bd3d 32ac 62bd d857 343d
00000040: 28e2 213c 2616 c03c 3641 013d 38e0 2abc
00000050: 3703 2a3d 33f7 d63c 7be9 32bd ac6d b83b
00000060: 46e0 6e3d 3762 d73c 9f06 0d3c 66a3 9fbc
00000070: 8add 45bc 8da5 59bc 5db4 9fbc 533c 94bb
00000080: cb45 43bc ffc2 c13c 012d ecbc 6acc 27bc
00000090: 83c4 5f3c 2055 48ba 6989 f6bb 8d5f 333d
000000a0: 04eb 1a3d fe63 13bb bd75 d03d 09d8 eebc
000000b0: 8275 62bc 8153 89bc 01dc 8b3c 0c3d 873d
000000c0: 3373 08bd 65f2 a13d a442 ec3c 4f7f 3bbc
000000d0: 05f2 ebbc 0bc5 3dbc 8048 fdbc f684 843d
000000e0: b127 b4bc 8153 8abc 5c3b 493a aed9 81bc
000000f0: fd7c 813d 76f4 8c3d 9ebe b5bc b53d 63bc
